output/model_7000.npz (npz, 32403 bytes, 16 tensors)

recur/res/bn2/gamma f4 [3]
000000 54 61 b1 3f 32 96 bb 3f b4 92 cf 3f
       1.3857827 1.4655211 1.6216645

recur/res/bn2/beta f4 [3]
000000 8f 2e 26 3d 0c 72 93 3c 53 aa 47 bd
       0.040571745 0.017998718 -0.04874642

recur/res/bn2/avg_var f4 [3]
000000 9b 47 d5 40 2d f3 4c 3e 1c 41 2a 41
       6.664991 0.20014639 10.640896

recur/res/bn2/avg_mean f4 [3]
000000 f8 8f 1a 3e b5 a3 ee be d7 2e 37 bf
       0.15093982 -0.46609274 -0.71555847

recur/res/bn1/gamma f4 [128]
000000 ba 32 7a 3f 5f 92 8b 3f 16 35 77 3f 11 1f 87 3f
       0.9773365 1.0904044 0.9656538 1.0556356
000010 70 46 75 3f fa 28 8f 3f 77 06 8f 3f 5d 63 67 3f
       0.95810604 1.118438 1.1173848 0.9038599
000020 2b 50 6c 3f 43 7f 7a 3f 6c 82 79 3f 69 96 84 3f
       0.92309827 0.97850436 0.97464633 1.0358402
000030 ad d4 94 3f 9c 82 5e 3f 17 9f 81 3f ba 7f 88 3f
       1.1627403 0.86918044 1.0126675 1.0663979
000040 9f 46 8f 3f fc 71 7e 3f d6 27 5c 3f c6 33 5e 3f
       1.1193427 0.99392676 0.85998285 0.8679775
000050 de bd 83 3f 50 11 87 3f d5 4e 6b 3f 24 f9 7c 3f
       1.0292318 1.0552158 0.91917163 0.9881766
000060 98 9d 69 3f c9 c8 89 3f 7c 7f 85 3f 68 b4 82 3f
       0.91256094 1.07644 1.042953 1.0211306
000070 e7 56 89 3f 0c cb 80 3f d2 d5 7c 3f 5d 8e 6c 3f
       1.0729645 1.0061965 0.98763764 0.9240473
000080 0e 53 51 3f 55 3a 4e 3f 0d a0 62 3f 6d 54 6c 3f
       0.81767356 0.8055776 0.8852547 0.92316324
000090 dd 44 89 3f 48 d7 81 3f 98 51 88 3f 2e 1f 7d 3f
       1.072414 1.0143824 1.06499 0.988757
0000a0 9b d1 82 3f 77 c8 78 3f 7e be 82 3f 5d e2 68 3f
       1.0220217 0.97180885 1.0214384 0.909704
0000b0 7a f6 6d 3f 6b a0 85 3f ed dc 5c 3f 46 70 50 3f
       0.9295422 1.0439581 0.86274606 0.81421316
0000c0 6e 5c 73 3f aa f0 80 3f 32 10 86 3f fc 66 58 3f
       0.9506291 1.0073445 1.0473692 0.8453214
0000d0 00 33 82 3f 8a 07 88 3f 5f 48 7f 3f e4 1e 75 3f
       1.0171814 1.0627301 0.99719805 0.9575026
0000e0 66 48 3c 3f 16 f1 66 3f 80 6b 8a 3f 99 94 8a 3f
       0.7354797 0.9021162 1.0814056 1.0826598
0000f0 00 58 82 3f 5a 94 85 3f 51 3f 7d 3f 89 0d 73 3f
       1.0183105 1.0435898 0.9892474 0.9494253
000100 e3 49 85 3f 25 a7 47 3f b8 aa 7d 3f 50 6a 80 3f
       1.0413173 0.7798942 0.9908862 1.0032444
000110 e5 d8 6d 3f 6f fe 66 3f 4c 03 76 3f 5a 7d 77 3f
       0.9290908 0.90231985 0.9609878 0.96675646
000120 b2 47 74 3f 2d 1f 72 3f a1 34 89 3f ba a7 73 3f
       0.954219 0.9457882 1.0719186 0.95177805
000130 e8 f3 82 3f 2f 39 79 3f 67 e4 88 3f 43 35 74 3f
       1.0230684 0.9735288 1.0694703 0.9539377
000140 b5 b5 6d 3f 81 6c 7b 3f f1 13 6b 3f 49 8b 79 3f
       0.9285539 0.9821244 0.91827303 0.9747816
000150 f6 c6 62 3f fb 46 82 3f 2b 48 90 3f 49 c5 3f 3f
       0.8858484 1.0177912 1.1272024 0.7491041
000160 fd a7 4c 3f 02 97 53 3f 62 24 8d 3f bb c7 74 3f
       0.7994383 0.82652295 1.1026728 0.95617265
000170 a7 4f 93 3f 6b 0f 6f 3f 02 72 87 3f a2 41 83 3f
       1.1508683 0.933829 1.0581667 1.0254405
000180 03 d6 57 3f de bc 6d 3f 1e 7c 71 3f 9a 7b 83 3f
       0.8431093 0.92866313 0.9433001 1.0272095
000190 46 f6 71 3f 97 d5 44 3f f8 93 73 3f 5e 33 6d 3f
       0.9451641 0.7688841 0.9514766 0.92656505
0001a0 be 31 41 3f e5 37 6d 3f ba 5b 71 3f a5 2b 6f 3f
       0.75466526 0.92663413 0.9428059 0.9342597
0001b0 db 57 49 3f d4 2a 64 3f 46 fb 80 3f f0 52 84 3f
       0.7864968 0.8912785 1.0076683 1.033781
0001c0 5d c4 64 3f c3 e8 57 3f bd 53 7e 3f 09 2b 65 3f
       0.89362127 0.8433954 0.99346524 0.8951879
0001d0 6b 33 6b 3f d2 d4 68 3f ce a7 67 3f 87 c7 80 3f
       0.9187533 0.9094974 0.90490425 1.0060891
0001e0 4e 00 67 3f aa c4 73 3f 31 f7 80 3f a0 58 73 3f
       0.9023484 0.9522196 1.0075437 0.95057106
0001f0 f2 c2 6a 3f ac 6d 7b 3f 50 87 90 3f 3d 2d 67 3f
       0.9170371 0.9821422 1.1291294 0.90303403

recur/res/bn1/beta f4 [128]
000000 41 0e 94 bd 06 4b d3 be 2e 1c e0 3e a7 64 29 3e
       -0.07229281 -0.41268176 0.437715 0.16542302
000010 5c 8d e8 bd 20 ba 30 3d 92 26 e7 bd 14 a8 b3 be
       -0.11355087 0.043146253 -0.112866536 -0.3508917
000020 ac 60 85 3d ea 29 4f be 03 77 2b be 89 aa d1 bc
       0.06512579 -0.20230833 -0.16744618 -0.025594013
000030 92 fc a4 be 11 12 15 be 47 9b d2 be 36 c8 8a 3d
       -0.32223946 -0.14557673 -0.41134092 0.067764685
000040 bd b1 62 3e d2 ce 8a bd f3 c0 0e be 4a a3 4a be
       0.22138114 -0.06777729 -0.13940792 -0.19788852
000050 ea f7 b0 3e 24 3e 3a 3e 94 c5 31 3e 17 6a be bd
       0.34564143 0.18187767 0.17360526 -0.09297579
000060 cc 2d 0c be 9c 48 32 be 12 5a 97 3d 58 af db 3d
       -0.13689345 -0.17410511 0.073902264 0.107268035
000070 4a b1 37 3e 4c 46 77 be b3 ed 3a be eb de 6a bd
       0.17938724 -0.2414791 -0.18254738 -0.057341497
000080 e5 a0 07 bf cd f7 0d be b9 3f c3 bd 47 63 10 be
       -0.5297988 -0.1386406 -0.095336385 -0.14100371
000090 b7 1a f1 3e 29 c1 6c bd 7c 8d b9 be 43 7a a7 3c
       0.47090694 -0.0578014 -0.36240757 0.020444041
0000a0 28 12 13 3d f9 d4 9d 3a 71 8b 20 be b3 b9 25 3e
       0.035905987 0.001204162 -0.15678193 0.1618412
0000b0 2b 98 d0 3e c6 7b 8f bb 33 15 43 bc e2 a1 11 bd
       0.40741095 -0.0043787686 -0.01190691 -0.035554774
0000c0 fc 8b a5 bd a1 45 25 be 48 72 29 3d 68 71 b3 bd
       -0.080833405 -0.16139843 0.041368753 -0.08761865
0000d0 c2 24 94 3e f5 d3 91 3e b9 21 5c 3d f2 3e b4 bd
       0.28934294 0.28482023 0.053743098 -0.08801068
0000e0 ce 87 3f be 3f d5 6b bd e1 d1 29 3e aa f1 a8 3e
       -0.18704149 -0.057576414 0.16583969 0.32996875
0000f0 11 25 6a bd 8d 91 fe 3e e7 bc e6 3e 18 0d 2e bd
       -0.057164256 0.4972042 0.45065996 -0.042492956
000100 73 1e a0 be e9 94 9a bd 67 cc 12 be a7 db 60 be
       -0.3127323 -0.075479336 -0.14335786 -0.2195879
000110 7d 2d fe 3c 50 d5 95 3d 5a 9f ba bd 10 e7 08 be
       0.03102755 0.07316077 -0.09112425 -0.13369393
000120 c2 67 80 3d 9a b1 e4 3d 5b f9 44 3c 72 7a 08 be
       0.0626979 0.11166687 0.012022342 -0.13327959
000130 01 47 29 be 13 ed 6c bc b9 35 b0 3d 86 0b b4 3c
       -0.16530992 -0.01446082 0.08603997 0.021978151
000140 a7 af 60 3c 4f 8a 60 be 81 8d 6b bc 34 ee 2b be
       0.013713754 -0.2192776 -0.014376999 -0.16790086
000150 0d 36 8b 3c 5f 25 87 3c 1e fe 0f 3e 26 ea 63 bd
       0.016993547 0.016497312 0.14061782 -0.055643223
000160 bb ef ea be c9 b9 f5 bd 7a 16 1a 3d 28 8a 04 be
       -0.45886025 -0.11998326 0.03761909 -0.12943327
000170 43 f4 e6 be 55 f3 f7 bd 91 86 3e 3e f2 af 11 be
       -0.45108232 -0.12106959 0.1860602 -0.14227274
000180 fb dc 62 be 7b ef 90 3e b9 be 29 be 46 47 c3 bd
       -0.2215461 0.2830771 -0.16576661 -0.09535079
000190 de 6c 28 bf 60 1f 0d be ca cd 03 3f d7 46 21 be
       -0.6579112 -0.137815 0.51485884 -0.1574968
0001a0 94 f7 79 be 8b 90 79 bd da 7d b6 bd 4d 37 b8 3c
       -0.2441085 -0.060928863 -0.08910723 0.022487307
0001b0 2d cd 8a be 34 4d 07 be 74 1d 59 3e 4e ae 9e bd
       -0.27109662 -0.13213044 0.21202642 -0.0774809
0001c0 64 45 a3 bd 1a 7b 77 be 6d dc d7 bc e7 2e 2b 3e
       -0.079722196 -0.24168053 -0.026350224 0.1671711
0001d0 0f 55 18 be 7b 07 60 bd c5 9c 08 be d7 5c b9 3e
       -0.14876197 -0.054694634 -0.13341053 0.36203644
0001e0 59 0c 27 be 00 aa 00 3d 35 01 b3 3e 39 45 38 bd
       -0.16313304 0.031412125 0.34961858 -0.04498789
0001f0 d3 4e 7a bd 97 cd a2 3d 1c 82 14 3d 3d 65 18 be
       -0.06111033 0.079493694 0.036256894 -0.1488237

recur/res/bn1/avg_var f4 [128]
000000 f3 0e 78 43 b7 91 86 43 49 7d 0d 44 86 f8 7a 43
       248.0584 269.1384 565.9576 250.9708
000010 17 94 e6 43 59 ab 13 44 54 27 e9 44 00 36 d8 43
       461.15695 590.6773 1865.229 432.42188
000020 6b 62 ed 43 95 db 8c 43 e6 54 9a 43 be df 04 44
       474.7689 281.71548 308.66327 531.496
000030 5d 4e e4 41 8d 12 87 43 3f 8f 21 43 fd 55 b3 43
       28.538263 270.14493 161.55956 358.67178
000040 f8 ee 6c 42 2d dd 52 43 6b 2f a0 44 e2 c5 b3 44
       59.233368 210.86397 1281.4818 1438.1838
000050 74 81 2e 43 12 f0 e7 42 36 56 21 44 98 01 aa 42
       174.50568 115.96889 645.34705 85.00311
000060 0d ba a6 44 2b 59 ea 42 11 49 47 43 02 8e 50 44
       1333.8141 117.17416 199.28542 834.2189
000070 d1 43 96 42 c3 22 cd 42 a3 24 8b 42 bb 94 ca 44
       75.132454 102.567894 69.571556 1620.6478
000080 91 56 1f 45 0e 5c 87 44 24 74 e1 44 27 a1 b3 43
       2549.4104 1082.8767 1803.6294 359.259
000090 41 5e 3c 42 41 be 63 43 10 c8 90 42 13 fb 8d 44
       47.092045 227.74318 72.39075 1135.8461
0000a0 b7 4d 73 43 d0 8f d9 43 9e 67 19 43 85 32 3e 43
       243.30357 435.12354 153.40475 190.19734
0000b0 26 10 0e 44 37 80 30 43 15 6c 79 44 cd 0c 8e 44
       568.2523 176.50084 997.6888 1136.4
0000c0 35 7b cb 43 92 29 be 43 00 a2 ab 42 22 d3 16 45
       406.96255 380.32477 85.81641 2413.1958
0000d0 0f 85 20 43 b5 e0 a2 43 23 f0 01 43 42 89 9d 44
       160.51976 325.75552 129.93803 1260.2893
0000e0 42 10 97 45 99 36 f4 44 f9 51 73 42 58 40 fd 43
       4834.032 1953.7062 60.83005 506.5027
0000f0 a6 f3 9e 44 67 c4 c4 41 c8 4e 43 43 5d 77 6b 44
       1271.614 24.5959 195.30774 941.86505
000100 98 e4 9b 42 38 d0 a0 44 d2 39 4c 43 51 c1 25 43
       77.94647 1286.5068 204.22586 165.75514
000110 0c 4a 2a 44 35 fa 42 43 8a 25 80 44 40 bd 08 44
       681.157 194.97737 1025.1731 546.95703
000120 eb 43 15 43 c9 2f 67 43 b0 a3 36 44 77 88 7d 43
       149.2653 231.18666 730.5576 253.53307
000130 f7 39 4a 42 7f 23 e1 42 b8 1e 86 44 31 b8 c4 43
       50.556606 112.56933 1072.96 393.439
000140 63 b3 fe 43 49 ed cf 42 d6 d6 0c 45 ba 3b 00 44
       509.40146 103.96345 2253.4272 512.9332
000150 a6 90 a1 44 88 5f 14 44 f6 ee 3e 42 42 20 00 46
       1292.5203 593.4927 47.73336 8200.064
000160 28 b7 85 44 b9 e3 9e 44 07 e2 ef 41 4a c0 61 43
       1069.7236 1271.1163 29.985365 225.75113
000170 fb 14 51 43 6f a4 31 43 4d d4 a8 42 9e 47 02 43
       209.08195 177.64232 84.41465 130.27975
000180 f7 2a 60 44 5f 12 78 43 be 4d 31 44 27 a8 2a 43
       896.6713 248.07176 709.2147 170.65685
000190 25 9d f0 42 9b 93 0b 45 a5 09 1f 44 3c e0 de 43
       120.30692 2233.2253 636.1507 445.75183
0001a0 12 58 8b 44 69 e8 50 43 19 6e 5f 43 6d fa 17 43
       1114.7522 208.90785 223.43007 151.97823
0001b0 2b a9 62 44 77 d0 27 44 d0 c3 90 42 9b 78 55 42
       906.64325 671.25726 72.38245 53.36778
0001c0 2d 71 44 43 d5 5d 9a 45 8b bc 3e 44 d6 ea 88 43
       196.4421 4939.729 762.946 273.83466
0001d0 e4 9e c1 43 25 d9 80 44 27 91 e9 43 7e 99 34 42
       387.24133 1030.7858 467.134 45.149895
0001e0 c9 10 e8 44 0f 99 a9 43 7d b2 9f 44 77 1e 02 44
       1856.5245 339.19577 1277.5778 520.476
0001f0 51 68 79 44 64 5f 76 43 0b be 5f 42 ea 76 08 45
       997.62994 246.37262 55.93559 2183.4321

recur/res/bn1/avg_mean f4 [128]
000000 23 dd ab c1 fc 5b 53 c0 6d 30 94 40 96 ee 80 40
       -21.482977 -3.3024893 4.6309114 4.0291243
000010 a7 8c 0e 42 f0 0e 9d 3f 3a 77 8f 3f 9c 3a 52 c1
       35.637356 1.2270184 1.120826 -13.139309
000020 0c 38 0e 42 2b f2 67 41 e1 73 f8 c1 fa 3d 20 42
       35.554733 14.496623 -31.056581 40.060524
000030 86 f7 63 bf c8 5a 12 c1 b6 58 29 bf 51 fc 31 41
       -0.89049566 -9.147163 -0.6615099 11.124101
000040 21 72 e4 c0 3d 00 e2 41 3d fb 1a c1 a9 3b 4e c2
       -7.1389318 28.250116 -9.686337 -51.55826
000050 25 be c6 c0 fd f8 e9 c0 b5 95 5c c2 8a 55 1e 41
       -6.210711 -7.311644 -55.1462 9.895884
000060 74 cd 89 42 91 16 6d c0 b4 71 44 c0 ca ba 2c 41
       68.901276 -3.7045023 -3.06944 10.795603
000070 6d 39 13 41 91 ba 92 c1 75 dc 81 c1 b1 c8 8e c2
       9.20152 -18.341097 -16.232645 -71.391975
000080 5a 50 6d 42 06 57 66 42 bf cb 8c c2 01 04 16 c2
       59.32847 57.584984 -70.39794 -37.50391
000090 e8 48 9e 40 7d ae 4f 41 67 a5 39 c0 e6 e3 a0 c1
       4.9463997 12.9801 -2.9007204 -20.111279
0000a0 1b 88 d9 c1 ef 97 21 42 c1 21 b5 41 03 8d 87 c1
       -27.191458 40.398373 22.641481 -16.943853
0000b0 a4 03 c2 41 20 f1 16 c1 98 a7 3b c2 9b 1b 43 c2
       24.251778 -9.433868 -46.913666 -48.77696
0000c0 aa fd f7 41 c6 c9 e4 40 b3 05 17 3f 40 47 98 c2
       30.99886 7.1496305 0.5899307 -76.13916
0000d0 ae 03 75 40 73 d3 3d c0 e5 ea 57 41 f9 14 91 3f
       3.8283496 -2.9660308 13.494847 1.1334525
0000e0 5e be d6 c2 31 9a 69 c2 30 cc 82 c0 e2 d9 91 c0
       -107.37181 -58.400578 -4.087425 -4.557847
0000f0 14 df 82 c0 c8 06 b4 40 5a ec 27 40 74 9a 9d c1
       -4.089731 5.625828 2.6238008 -19.700417
000100 b8 af d6 3f a8 7c 39 42 16 9b 5a c1 0b 63 3b c0
       1.6772375 46.371735 -13.662863 -2.92792
000110 ee a1 39 42 c4 9b b7 c1 11 e6 da c1 62 c6 ed 40
       46.408134 -22.951057 -27.362337 7.4304667
000120 32 f3 f4 c0 19 bd 3b c1 3b f5 78 bf 74 97 57 41
       -7.654687 -11.733666 -0.9724919 13.474476
000130 1c 0f 8e c0 2e ea 97 c1 d0 18 81 c0 6a 67 2d c0
       -4.4393444 -18.989346 -4.034279 -2.709437
000140 60 6a b6 c1 7e 95 68 40 cf 55 9f c2 1d a8 fc c1
       -22.80194 3.6341243 -79.667595 -31.582087
000150 84 57 73 c2 1d 15 9e c1 0a 1e f2 c0 7f e5 28 43
       -60.835464 -19.76031 -7.566167 168.89647
000160 0c c3 18 c2 6d f2 79 42 1f 93 5e 3f 0e d3 91 c1
       -38.190475 62.486744 0.8694324 -18.228054
000170 91 05 8f 3f 79 79 cd 41 68 a3 2b 41 ac 1f eb bd
       1.1173574 25.684313 10.727394 -0.1148065
000180 fb 11 27 c2 8d 9c 9d 41 99 ce 00 42 c6 61 9d 41
       -41.76756 19.70144 32.201756 19.67274
000190 8a 15 2d 41 c6 de 9c c2 a5 50 f0 3f 00 d6 21 42
       10.817759 -78.435104 1.8774611 40.458984
0001a0 eb e8 69 c2 e1 f3 5e c1 19 81 bb c1 e3 40 73 40
       -58.47746 -13.934541 -23.438036 3.8008354
0001b0 0d 1a 60 42 0a 9e f4 41 fb 96 cd c0 51 f3 de bf
       56.02544 30.577168 -6.42468 -1.7418004
0001c0 eb 31 e5 41 ae 6c 01 43 21 4f ed c1 8f 8f e1 40
       28.649374 129.42453 -29.663637 7.0487742
0001d0 54 9f 3d 42 73 69 40 c2 9c 83 2e 42 fc 39 fd 3f
       47.405594 -48.102978 43.628525 1.978332
0001e0 33 4a ac c2 92 84 ef 41 0d 04 98 c0 dd e0 8d c1
       -86.14492 29.939732 -4.7504945 -17.734797
0001f0 6e 62 b5 c1 cd f8 46 41 df 93 49 40 e6 a3 98 42
       -22.673061 12.435742 3.1496503 76.320114

recur/res/cn1/W f4 [128, 3, 3, 3]
000000 c1 f7 98 be 96 84 8c be 07 67 0f 3f b7 e0 fd bd
       -0.2987652 -0.27444905 0.5601658 -0.123963766
000010 3f 57 7d bd 12 ba 04 3d 89 80 fc bb b0 11 86 3e
       -0.061850782 0.032404013 -0.0077057523 0.2618537
000020 1c 9a ab be 27 1c b3 3d 8a cc 4a be 65 aa 21 3b
       -0.33516014 0.08745604 -0.19804588 0.0024668213
000030 76 70 3b 3e f4 8b 61 bd ad 79 42 be 87 97 f3 be
       0.18304619 -0.05506511 -0.18991728 -0.47576544
000040 65 20 a8 bd d3 26 e7 3d fe 51 83 3d 3c e2 15 be
       -0.08209304 0.11286702 0.06412123 -0.14637083
000050 86 83 91 3d d6 2e 9f be ac 99 9e 3d f9 43 1d 3e
       0.07105164 -0.3109042 0.07744154 0.15357961
000060 33 c2 3c bd e3 39 88 3c 04 3b ee bd 4e e1 64 3e
       -0.04608364 0.016629165 -0.1163235 0.22351572
000070 22 c3 3b be 3e 92 d7 bd 28 70 9b 3b 2c c3 81 3d
       -0.18336156 -0.1052594 0.0047435947 0.06336054
000080 5e 60 c3 bd df 16 9b be f8 38 2d bd 92 4e 7e bd
       -0.09539865 -0.30290887 -0.042290658 -0.06208665
000090 73 60 25 bd 85 f4 da be 22 f6 77 3e 11 28 ef bd
       -0.040375184 -0.4276468 0.24214986 -0.11677564
0000a0 67 70 ae be e4 2a 89 be 57 11 26 3e d5 32 74 3e
       -0.3407013 -0.26790535 0.16217552 0.23847516
0000b0 37 4c 7c 3e e2 96 a2 3d 98 c1 8f 3e 52 44 d0 be
       0.24638449 0.07938935 0.28077388 -0.40677124
0000c0 0f 71 6f 3d e7 1a 84 be dc fa 92 3e 01 53 23 3e
       0.05845743 -0.25801775 0.28707016 0.15949632
0000d0 f1 a2 40 3d 55 29 90 be 73 b9 e1 bd 49 6f 0e be
       0.047030393 -0.28156534 -0.110217 -0.1390964
0000e0 f1 bb d9 bc bf 2a aa be d9 8c d4 3e 67 83 42 bb
       -0.026578875 -0.33235738 0.41513708 -0.0029680373
0000f0 8d 3e 1a bf 77 e0 0a be df 59 90 be 43 c2 4e 3c
       -0.60251695 -0.13562189 -0.28193566 0.012619558
000100 3a 6a 1e 3d 0e e2 e1 3d c1 c2 23 bd 1e 55 d1 ba
       0.038675524 0.11029445 -0.039980654 -0.0015970801
000110 59 9f 90 3e 73 97 e7 bd e4 36 0f 3d 62 47 7b 3e
       0.28246573 -0.113081835 0.034964457 0.24538949
000120 72 d0 f5 3d 37 37 7b 3e c1 b8 3a 3d 42 70 f7 bd
       0.120026484 0.24532782 0.04558635 -0.12081958
000130 55 85 28 be ad 00 ce bd 76 85 12 be ef b2 49 bd
       -0.16457112 -0.10058723 -0.14308724 -0.04924291
000140 04 f8 66 3e 8c 48 8a 3c 90 cc e6 3d d1 22 0f 3e
       0.22555548 0.016880296 0.11269486 0.13978125
000150 06 e6 cc 3e f9 5f 48 be 5e f1 2f bd 45 82 fc 3d
       0.40019244 -0.1956786 -0.042954795 0.123295344
000160 87 7f b3 3d 92 60 03 bd 33 ed c3 be b5 1c c9 be
       0.08764558 -0.03207452 -0.38266906 -0.39279714
000170 51 5a 3c be d2 cd b9 be 07 8a 5e be 17 02 3c bd
       -0.18393828 -0.3628984 -0.21732341 -0.04590043
000180 1e 7a 51 3d f2 bd 36 3d 60 10 74 3d 37 98 5f 3d
       0.05114185 0.04461474 0.05958593 0.054588523
000190 47 df 8b 3e d6 70 52 bc 11 3d d6 bd 98 50 9c bc
       0.27318785 -0.012844285 -0.10460866 -0.019081399
0001a0 98 8a 6b 3c d1 28 a1 be 3c 49 15 3e b6 1a 70 3c
       0.014376305 -0.31476453 0.14578718 0.014654806
0001b0 03 c6 88 3e a1 69 05 be d2 90 da 3c f6 d2 bb 3d
       0.2671357 -0.13028575 0.026680384 0.09171097
0001c0 dc f8 1e 3d e4 a5 5c 3b 75 ea 44 be 05 83 99 3d
       0.03881155 0.0033668214 -0.19230063 0.07495693
0001d0 cb 9a a4 bd 01 d9 4e 3e b9 ae 25 3c d8 1a 32 3e
       -0.08037337 0.20199968 0.010112458 0.17393053
0001e0 18 49 91 bd b9 45 5d 3e cf ab 26 3e e9 5a 41 be
       -0.0709402 0.21608628 0.16276477 -0.18882336
0001f0 cf 67 29 be af 4e 23 3e e0 0a 98 3e dc 94 46 3d
       -0.16543506 0.15947984 0.29695797 0.048481807
000200 ff dd 90 3e 1f 36 c1 bd 74 89 56 3d b3 66 28 3e
       0.2829437 -0.09434151 0.05237718 0.16445427
000210 92 b3 f0 3c b1 e5 da bc 6c 4a b2 be bb a9 f9 bc
       0.0293825 -0.026720854 -0.34822404 -0.030476442
000220 1d 72 15 3c 39 29 b2 be b3 f2 90 bd 58 aa 98 3d
       0.009121445 -0.34797075 -0.07077541 0.074543655
000230 d7 00 c7 be be 8f fa bc 22 b4 5e bd 01 23 9b be
       -0.38867828 -0.03058612 -0.054371007 -0.30300143
000240 84 16 b8 3e c6 c4 dc bd ee ca 82 3d d6 33 39 3e
       0.35954678 -0.10779719 0.06386362 0.1808618
000250 51 e7 00 bc 19 0d 73 bb 25 ee 85 be 3c dc b7 be
       -0.00786765 -0.0037086664 -0.26158252 -0.35910213
000260 25 0a 3c be ce 92 42 3d 29 bf a0 bd 55 69 11 be
       -0.18363245 0.047503285 -0.07848961 -0.14200337
000270 2e 50 28 be 75 23 16 3e 54 c4 b4 3d 5b 89 fa 3c
       -0.16436836 0.14661963 0.08826509 0.030583074
000280 a9 c7 8b be a5 82 b6 3e 2c fe 17 3f 71 ce 9e 3e
       -0.27300766 0.3564655 0.5937221 0.31016877
000290 ed 54 1f 3e 03 b8 5e 3e af f8 58 be 78 23 16 3f
       0.1555974 0.21749882 -0.21188615 0.5864787
0002a0 3f 28 88 3e b5 23 79 3e 53 80 0a bc 2a c6 10 be
       0.26593205 0.24330027 -0.008453446 -0.14138094
0002b0 b4 37 da 3c 3d 3d 33 3e eb 04 6f be f9 a3 48 bd
       0.02663789 0.1750383 -0.2334172 -0.0489845
0002c0 a2 7e 15 3e 87 76 e0 3c b4 d8 24 be fe f4 af 3e
       0.14599088 0.027400268 -0.1609829 0.34366602
0002d0 04 1a 57 3e bd af 7c 3d 58 2d 32 3e e9 e8 99 bd
       0.21006018 0.061691035 0.1740011 -0.07515127
0002e0 7f 13 8a 3e 9d 34 f0 be 93 32 77 be a2 f0 b4 bd
       0.26968 -0.4691514 -0.24140386 -0.088349596
0002f0 dc 5b 2d 3e 93 e8 a2 3e 52 60 a5 3d 11 f8 61 be
       0.16929573 0.31818065 0.08075012 -0.22067286
000300 11 d9 91 bd 92 3f 63 3e 42 c5 54 be b1 24 23 be
       -0.0712148 0.22192219 -0.20778373 -0.15931965
000310 5c 48 cb bd 55 48 06 bf 8e 58 e3 3e f9 34 9a 3d
       -0.09925911 -0.5245412 0.444035 0.07529635
000320 50 6a 81 3d 9d 8a 87 3d 5a a9 f2 bd 3e c7 19 3e
       0.063191056 0.06618235 -0.118487075 0.15017411
000330 9f 81 88 3e 13 d8 f5 3d d9 8d 47 be 28 ac 44 be
       0.26661393 0.120041035 -0.19487704 -0.19206297
000340 64 1a c8 3d ea 99 e0 3c 28 78 21 be 24 22 30 bd
       0.097706586 0.027417142 -0.15768492 -0.04300131
000350 de 95 86 be 0c 8a f7 3b 94 7c c4 3d 5e af 86 3e
       -0.26286215 0.0075542983 0.09594074 0.2630567
000360 2e 0d 07 be 2b 1a 8d bd c4 01 56 3d 1f f1 42 be
       -0.13188621 -0.06889757 0.052247778 -0.19037293
000370 fe 35 3f be f6 66 85 be aa 61 27 3e 71 0c 01 be
       -0.1867294 -0.26055115 0.1634585 -0.12602402
000380 57 64 99 be 0e 8d 18 3d f6 72 e6 3d e5 43 c8 3d
       -0.29959366 0.037243895 0.11252396 0.09778575
000390 13 6d 68 3d fb 3b a7 bc ce 97 68 be 4f 23 94 bd
       0.056744646 -0.020414343 -0.22714159 -0.07233297
0003a0 72 46 be 3e 25 85 cd bd c6 b3 92 3d 38 37 48 3e
       0.3716312 -0.10035161 0.07163195 0.19552314
0003b0 68 e4 72 3e e4 79 f8 bd f8 01 88 be 16 65 3a 3e
       0.23719943 -0.12132624 -0.26564002 0.18202624
0003c0 1c ba 61 bd 47 22 d8 3d 11 82 66 3d b0 e0 26 bf
       -0.05510913 0.10553413 0.056276385 -0.65186596
0003d0 5c b8 92 3e f7 01 ca bd 54 5b a5 bc d4 4f e7 3e
       0.2865628 -0.09863656 -0.02018515 0.45178092
0003e0 0a 85 cc 3e 79 5c 38 3e 76 e3 e0 bc f9 5c b0 bc
       0.3994525 0.18004026 -0.027452212 -0.021528708
0003f0 e8 ef a2 3e 98 e4 b4 be db 89 48 3e 99 fe 62 be
       0.3182366 -0.35330653 0.19583838 -0.22167434

recur/res/cn1/b f4 [128]
000000 f4 42 68 bc e6 2d 77 3c f9 b7 43 bd fc 4a ef bb
       -0.014176119 0.015086627 -0.047782872 -0.00730264
000010 b4 66 24 ba 72 5b 2e 3d bd 63 7c 3d 71 90 65 3b
       -0.00062714075 0.042567678 0.061618555 0.003502872
000020 b6 23 87 bb 2f 84 19 bd b4 b7 1c b6 81 23 5f bb
       -0.00412413 -0.037479576 -2.335274e-06 -0.0034048262
000030 c0 0d eb 3c 9d 5c 88 bd 7d 31 5e bb 26 98 57 bd
       0.02869308 -0.066582896 -0.003390401 -0.052635334
000040 99 0f d6 3c eb 7c 36 3b 77 c2 14 3c dc 63 17 3c
       0.026130484 0.0027845453 0.009079567 0.009240117
000050 66 58 be bc 7f fd fd 3c 1d 50 03 bd 84 a3 4b bd
       -0.023235511 0.031004665 -0.032058824 -0.049716488
000060 42 e1 35 bb 4c 8a 61 3c 11 08 c0 bb 02 11 b0 3c
       -0.0027752672 0.013765883 -0.0058603366 0.021492485
000070 cb 64 6e bc 29 fd 9a 3c 34 8f ce bb cc 64 84 3c
       -0.014550398 0.018919544 -0.0063036922 0.016161345
000080 01 9f de bc fa 3d 26 ba 4b 02 02 3d fa fa 2a 3c
       -0.027175428 -0.00063416327 0.031740468 0.010435814
000090 89 96 1d 3e 1a b0 b9 bd bc 03 2c 3c 5b 56 d2 3c
       0.15389456 -0.09066792 0.010498937 0.025675943
0000a0 e8 68 45 3d a3 09 b5 bc d8 aa 15 3d 9a 4b 0c 3d
       0.04819575 -0.022099322 0.036539882 0.034251787
0000b0 2c ea 41 3b 7e 91 dc bd e4 c6 83 bb 10 63 8e 3a
       0.002958904 -0.10769938 -0.0040215123 0.0010863263
0000c0 7f ab 0a bd 35 69 e1 bb 56 fd aa 3d 47 39 af 3c
       -0.033854958 -0.0068789967 0.08349101 0.021389617
0000d0 94 d1 bf 3b b8 35 1d bd 33 85 10 3e bc 97 ea 3c
       0.005853841 -0.03838131 0.14113311 0.028636806
0000e0 57 41 89 3b 33 86 be bc 3a c4 30 be 26 ea 1b bd
       0.0041886973 -0.02325735 -0.17262354 -0.0380651
0000f0 1d eb 8a bc 44 08 df 3d cf 69 0f bd d3 58 e6 3c
       -0.016957814 0.108902484 -0.035013016 0.028118527
000100 54 28 6b 3d 89 e0 aa bc cf ca 5a 3d d1 68 7c bc
       0.057411507 -0.02085902 0.05341607 -0.01540585
000110 1e 54 b7 bc b0 66 bc 3c c6 68 45 bd d7 92 de 3c
       -0.022378977 0.022998184 -0.048195623 0.027169628
000120 1b 10 9a bc 38 aa 13 bc 44 48 a6 bc 55 b9 9e 3c
       -0.018806508 -0.009012751 -0.02029813 0.019375483
000130 36 d7 aa ba 97 33 e0 bc 5f 8f 47 bd 58 8d 2f bd
       -0.0013034109 -0.02736835 -0.048720714 -0.042859405
000140 8b 32 51 bd 57 4b 0e bc 75 d9 3d 3d a8 0e df bc
       -0.051073592 -0.008684955 0.04634996 -0.027228668
000150 72 65 8c 3c b7 8c 04 3d dc 00 4d be cc 88 f7 ba
       0.017138217 0.03236076 -0.20019859 -0.0018885373
000160 c7 4b f5 3c 97 74 80 3b 3a 0e dc bd 1c f0 4a 3d
       0.02994336 0.0039201486 -0.10744901 0.049545392
000170 f1 44 09 bc f4 10 95 3a 88 d0 0c 3b 0b c2 98 3c
       -0.008378253 0.001137285 0.00214866 0.018647214
000180 5a b4 4e bc 33 05 a0 bd 03 af 5a bc c4 f5 01 ba
       -0.012616241 -0.07813492 -0.01334739 -0.00049575814
000190 d5 b8 01 3d 04 c3 d1 3b 71 08 f7 3b 95 bf 41 3d
       0.03167041 0.0064014215 0.007538848 0.047301847
0001a0 3d 5e 82 3c a5 8f a2 3c ed 9a 83 3c bf 3d e0 bb
       0.015914077 0.019843886 0.016065085 -0.006843298
0001b0 75 50 26 bd 11 f8 2c bc 92 2d 75 bd f0 08 3b 3d
       -0.040604074 -0.0105571905 -0.059857912 0.04566282
0001c0 32 c3 95 bc 49 0b 4a bc 03 eb 82 3c fc 78 5a 3a
       -0.018281553 -0.012331792 0.015981203 0.0008334068
0001d0 c0 c3 d1 3b 98 94 21 3d 10 5a 48 3d 0d cf 74 bd
       0.006401509 0.03944835 0.048914015 -0.05976777
0001e0 27 ef 03 bc eb 5b df 3b a0 0c 86 bd a8 ae 46 bb
       -0.008052624 0.0068163774 -0.06545377 -0.0030316506
0001f0 52 70 70 3c 64 04 3b bd 50 18 b5 3c 86 48 b8 3b
       0.014675217 -0.045658484 0.02210632 0.00562388

recur/res/cn2/W f4 [3, 128, 3, 3]
000000 82 ff 04 3c 8f 50 9d bb b1 75 04 3d 0e 8f a8 bc
       0.008117558 -0.004800863 0.0323388 -0.020576026
000010 2d fa a9 3b b3 47 81 bd ce 6f e4 3a a9 48 0c 3d
       0.005187294 -0.06312504 0.001742834 0.03424898
000020 79 f5 b0 bd 6e da ee bc cc 71 df bd 4d 06 85 bd
       -0.0864057 -0.02915689 -0.10910377 -0.064953424
000030 72 6a 11 be 9e fb 30 bd 94 e7 81 bc ab bf d7 bd
       -0.14200762 -0.04320871 -0.015857495 -0.10534605
000040 41 db 2f 3d 19 ed 84 3d ae b8 05 bc c4 b8 5a bc
       0.042933706 0.06490535 -0.008161707 -0.013349716
000050 52 57 18 bd 59 62 e6 bd d1 e5 44 bd 21 bc b0 bd
       -0.03719265 -0.11249227 -0.048070733 -0.08629633
000060 ef 68 fd bd 57 cb 29 bd 6f 19 6d bd d9 5a 6c 3d
       -0.1237353 -0.041453686 -0.057885583 0.057703827
000070 40 bf 0c 3b 65 f9 d8 3d 47 ed b3 3d 71 29 63 bc
       0.0021476299 0.10594443 0.087854914 -0.013864861
000080 f4 c4 bb 3b 2b 7b 5d bd 5c ef 45 bd 40 22 81 3c
       0.0057302658 -0.05407254 -0.048323974 0.015763402
000090 90 3c 74 3d de 68 1d bd 0a 72 09 3b 5b fd c3 3c
       0.05962807 -0.038430087 0.0020972514 0.02392452
0000a0 17 71 04 3d ed 5b 7f bd 59 20 89 bc 37 b4 b5 b8
       0.032334413 -0.062343527 -0.016739057 -8.66432e-05
0000b0 b3 4e 85 bd c7 b6 cd 3d 75 92 9f 3d 81 0c dd 3c
       -0.06509151 0.10044628 0.07791606 0.026983501
0000c0 53 22 83 3d da d0 b2 3d e3 cc d9 3d 48 87 ec 3a
       0.06403031 0.087312415 0.10634782 0.0018045688
0000d0 ef 89 14 3d 91 80 b1 3d 70 e1 05 3d 3d 56 5a bd
       0.036264356 0.086671 0.032685697 -0.0533049
0000e0 2c 3c 1a be 9f 96 9c bc c4 6d 99 bd dc 5a 05 be
       -0.15062016 -0.01911479 -0.07491639 -0.13022941
0000f0 8e a5 ca bc da 7a 07 be 94 a9 1e be a8 9a a1 bd
       -0.024737146 -0.13230458 -0.15494376 -0.078908265
000100 52 1e 8c bd e0 ca 0e bd 3b 8b b1 bd 5e be 03 bd
       -0.06841721 -0.034861445 -0.08669134 -0.03216397
000110 ff 89 ed 3c a1 d3 8f 3d 75 10 05 3d ee ff 62 3c
       0.028996466 0.07022787 0.032486398 0.013854964
000120 c5 42 3e bc 4d f0 95 bd 39 ee 6c bc ce d0 4e 3c
       -0.011612599 -0.07321224 -0.014461094 0.012623025
000130 8e 90 e0 3b 6a 63 c9 bd 66 a1 88 3c e7 c4 00 39
       0.0068531698 -0.09833415 0.016678523 0.00012280383
000140 d9 06 41 3c 85 c7 87 3d 8a 77 10 3d 2a 3f a0 bc
       0.011781418 0.06629852 0.03527025 -0.019561369
000150 80 cc bd bc 50 08 26 bd a8 63 b7 3c 95 2c a1 3d
       -0.023168802 -0.04053527 0.022386387 0.078698315
000160 80 7f 6b bc 68 87 a7 3d 73 79 39 bd 70 7d ac 3d
       -0.01437366 0.081801236 -0.04528184 0.08422363
000170 96 6e 89 3c 5c 4e 21 3d be 74 56 3d 62 f4 bb 3b
       0.016776364 0.03938137 0.052357428 0.00573592
000180 6a db 1f bd e5 04 f6 3a 3c 6d 82 3c e2 38 04 bd
       -0.03902761 0.0018769769 0.015921228 -0.03228081
000190 1e 37 af bd 54 11 45 bd 88 ed a0 bd 2a bf 58 bd
       -0.08555435 -0.04811223 -0.078578055 -0.052916683
0001a0 cb 5b 8e bb 27 4f 68 bc f0 1d 96 bb 4a 50 30 3c
       -0.0043444387 -0.014179028 -0.0045812055 0.01076133
0001b0 4e 9c 94 3d 32 d2 dd 3d a2 52 73 3d 46 10 ff 3d
       0.07256375 0.10831107 0.059404977 0.12454276
0001c0 e2 65 be 3d c2 33 b0 3d e1 f2 43 3d 97 ab 60 3d
       0.09296776 0.08603622 0.04783905 0.05485114
0001d0 42 d8 5c 3c fb 16 10 bd ad b0 08 be 93 85 7d bb
       0.013479294 -0.035178166 -0.13348646 -0.0038684353
0001e0 c2 90 49 bd 9a 69 24 bd 49 b3 a7 3c 20 8f bb bc
       -0.049210317 -0.040139772 0.020471232 -0.022895396
0001f0 71 05 cc 3c 4e f3 71 3d 9a b3 be bd 14 3f ca bd
       0.024904938 0.059069924 -0.093116 -0.098753124
000200 f2 9b 71 3d 2b 37 13 bd 59 1a 8d bd 0e 4a ae bd
       0.05898661 -0.035941284 -0.06889791 -0.085102186
000210 67 36 a0 3c c9 85 c8 3c 65 e3 4a bd 94 03 96 bd
       0.019557191 0.024477856 -0.049533267 -0.07324901
000220 70 f8 3c 3c 90 99 e5 bc c1 b0 a7 3b c8 86 7f 3d
       0.0115338415 -0.028027326 0.0051175063 0.062384397
000230 3f 0d 31 3d f4 84 9c 3b dc a3 4e 3e 3a 34 14 3d
       0.043225523 0.0047765914 0.20179695 0.03618262
000240 cc 59 50 bd b0 08 6a bd 2c 0b 4d bd 38 55 88 bd
       -0.050866887 -0.05713719 -0.050059482 -0.06656879
000250 9e a5 09 bd 49 88 b9 3d 28 41 9f bd 4c 45 42 bd
       -0.03360521 0.090591975 -0.077760994 -0.047429368
000260 04 11 25 3d 81 dd 78 bd c7 cb 6d bd 83 c3 6d 3c
       0.04029943 -0.060758118 -0.058055665 0.014511946
000270 a7 97 3b bc 05 ca 05 bd 7f 1f 81 bd a0 94 1c 3d
       -0.011449731 -0.032663364 -0.063048355 0.038227677
000280 c6 f2 79 3c 25 d9 a0 3c 2b 62 c8 3d 20 db 86 3d
       0.015255636 0.019634793 0.09784349 0.065847635
000290 75 83 d6 bc ea 2c 32 bd 70 4f 62 bc 56 82 07 bd
       -0.02618573 -0.043499865 -0.013812885 -0.033083282
0002a0 93 72 8e bc 4a d5 03 bc 02 31 05 bd 64 fa 3e 3d
       -0.017388618 -0.008046458 -0.03251744 0.04662551
0002b0 92 5b 39 3d c0 b9 20 3b e4 cc 4d 3d 3c 7e c3 3c
       0.045253344 0.0024524778 0.050244227 0.023863904
0002c0 65 21 cd 3b 48 00 08 bb 66 3a 36 3d 0f 7c 4f bd
       0.0062600845 -0.002075212 0.044489287 -0.05065542
0002d0 00 c8 74 bd a6 3e 8d 3b 30 8d 7f 3c f1 7d 29 bc
       -0.059761047 0.004310447 0.015597627 -0.010344968
0002e0 e5 8d 20 3c 72 e0 15 bd 06 fa ad 3a 81 f9 ef 3c
       0.009799455 -0.036591 0.0013273365 0.029293777
0002f0 54 ef 45 bd de 08 9e bd 27 24 b5 bb e0 53 4a bd
       -0.048323944 -0.07716535 -0.0055279913 -0.049396396
000300 39 b0 86 bb 2e 2f b7 39 0c 26 bb 3d 53 b0 eb bc
       -0.004110363 0.00034939632 0.09138116 -0.028770601
000310 68 e8 e1 bc d7 41 4f bd 6f ea 22 3d b2 9b a7 bc
       -0.02757664 -0.0505999 0.039774355 -0.020459983
000320 b1 90 c3 3a 4c 94 3e 3d a9 da 0b 3d f9 77 3a 3d
       0.0014920441 0.046528146 0.034144077 0.04552457
000330 20 3e ea 3c bf 3a 0e bd 3b 48 99 3d 78 9d d4 3d
       0.028594077 -0.034723993 0.0748448 0.10381597
000340 48 dc 00 3d f9 1e ae bc 6a 13 db 3d 7f f4 ee 3c
       0.031460077 -0.021255003 0.10697062 0.02916932
000350 68 62 4f 3c 46 68 a3 3d dc aa 99 3c 9c 49 0a 3d
       0.012657739 0.07978873 0.01875823 0.033761606
000360 17 ed 87 bc a5 7d 57 bd 1d ba f5 3a 51 ea b7 3c
       -0.016592545 -0.05261006 0.0018747483 0.022450598
000370 ae f3 34 bd c5 8b 0d bd 0b a6 e0 3c d6 99 5d 3c
       -0.044177704 -0.034557123 0.027422925 0.013525447
000380 fb 87 d4 bc 3b 4d 27 bd 1e 5b df bb 43 09 49 bd
       -0.025943747 -0.040845137 -0.006816282 -0.0490811
000390 0f c9 76 3d e1 2b 6b 3d 0a b4 06 3e 02 36 a4 3d
       0.06025034 0.057414893 0.13154617 0.08018114
0003a0 a1 d1 48 3d 6c c1 8f 3d 01 e5 89 3d 5f c4 52 3c
       0.049028043 0.07019314 0.06733132 0.012864201
0003b0 76 99 d6 bd ca 74 a3 3d ac 8d 7e 3d 26 7e e9 bc
       -0.10478489 0.0798126 0.062146828 -0.028502535
0003c0 84 a1 ea bc c1 bc 95 3d 9c f0 6e 3c cf 41 da bc
       -0.02864147 0.073113926 0.014583733 -0.026642708
0003d0 31 0c 37 bd c8 b4 e2 bc df 3b 81 bd 9f bb 50 bd
       -0.04468936 -0.027674094 -0.06310248 -0.05096018
0003e0 8d 29 13 bd 9a 12 86 bb ae 23 0b bd 4d b2 3f bd
       -0.035928298 -0.004091573 -0.033969574 -0.0468009
0003f0 ab 08 45 3c 69 c2 42 3e f1 a5 b8 3d bf fb 5c 3d
       0.012025992 0.19019474 0.09016026 0.05395102

recur/res/cn2/b f4 [3]
000000 6b 91 6a bd 61 60 9a bd cb 1f 7e bc
       -0.057267588 -0.07537914 -0.01551051

recur/conv/W f4 [3, 3, 3, 3]
000000 49 7b 60 3e 68 3e 82 be b5 38 92 3d 5b d0 7b bd
       0.2192203 -0.25438237 0.07139722 -0.061478
000010 bc be ce bd 59 d7 98 be 83 a5 a9 3d ff 43 81 be
       -0.100949734 -0.29851797 0.08283522 -0.2524719
000020 17 b8 e6 3d 3b 4e bb be b1 8a 2c 3c 0d 4b f5 3c
       0.11265581 -0.36583123 0.0105311135 0.029943014
000030 17 68 40 be 7e 61 a2 3c 63 55 9f be d5 02 af 3e
       -0.18789707 0.019821879 -0.31119832 0.34181848
000040 7c 8e dc 3d e5 46 00 be 8c 70 23 bd ed 23 ba bd
       0.10769364 -0.12527044 -0.039902255 -0.090888835
000050 4e 6e 85 3d b0 58 3c bd 82 21 82 3e 06 84 42 be
       0.065151796 -0.045983016 0.2541619 -0.18995675
000060 83 26 5e 3d 9e 19 85 bb 99 96 17 3d 07 a3 80 be
       0.054235946 -0.0040618917 0.037008855 -0.2512438
000070 2d 86 0c be 45 97 04 be a5 e2 6e bd 51 20 16 be
       -0.13723059 -0.1294833 -0.058321614 -0.14660765
000080 5e 57 8f bd bb cc 3a 3e 49 3e 4d 3e be 1a 7f bd
       -0.06999086 0.18242161 0.20043291 -0.062281363
000090 29 99 33 3e 55 f4 b6 3c 03 bb 8f be db 31 e5 3d
       0.17538895 0.022333303 -0.28072366 0.1119115
0000a0 54 5a 2f 3e df 22 83 3d 88 b5 86 be 07 77 7e 3e
       0.17124301 0.064031355 -0.26310372 0.24850093
0000b0 c1 a4 a2 3d e8 49 06 3e df 59 a5 bd 9a 3d ff bc
       0.079415806 0.1311413 -0.08073782 -0.031157304
0000c0 8c 61 68 bd d2 e6 0d be 53 f8 26 3e 3b 49 a0 3e
       -0.056733653 -0.13857582 0.16305666 0.3130587
0000d0 2d 81 d8 be 28 b4 f7 bd 3c 6c 0c ba 4e d7 4a be
       -0.42286053 -0.12094909 -0.00053567044 -0.19808695
0000e0 50 ef 7a 3d 68 38 e8 3e 14 a3 ad 3e 37 d2 0b 3d
       0.061263382 0.45355535 0.3391348 0.034136023
0000f0 5b 9c 61 3c 7a 34 fa be 4b 1c b2 3e 2f 1c b4 3d
       0.013770188 -0.4886816 0.3478721 0.08794438
000100 5a 8a be 3e 61 81 b6 3e a1 9b 85 be f6 e0 bc 3d
       0.3721493 0.35645583 -0.26095298 0.092225954
000110 d1 8d ae be 6a 30 f5 bd 5c fc 13 bd 1e c5 b7 bc
       -0.34092572 -0.11972125 -0.03612934 -0.02243286
000120 71 75 cb 3d 4a cb 8e be 83 19 30 3e c3 25 49 bc
       0.099345095 -0.27889472 0.17197232 -0.0122770695
000130 7d 69 0d be 71 f1 eb 3c ea 90 a3 bd a2 7c 5f 3e
       -0.13809772 0.028801652 -0.079866245 0.21824887
000140 59 82 ba 3d
       0.09106893

recur/conv/b f4 [3]
000000 22 0c 20 3d 27 5f 34 3d b6 f7 98 bd
       0.03907407 0.044036057 -0.07469122

conv/W f4 [3, 3, 3, 3]
000000 d1 ac b3 bd 73 ab 7e 3e 1c 57 70 bb 1d 70 e3 bd
       -0.087731965 0.2487009 -0.0036673015 -0.11105368
000010 8d 7b 18 bd 5b 18 55 3d f8 e8 8f bd 14 4a 37 bc
       -0.037227202 0.05202518 -0.07026857 -0.011187095
000020 d0 71 81 3e 9d c0 75 be 61 d5 04 3d 7e a0 72 3d
       0.25282145 -0.23999257 0.032430056 0.05923509
000030 00 cb 4f 3e 65 5a 6a 3e 1e 88 26 3e 58 d1 99 bd
       0.20292282 0.22886045 0.16262862 -0.07510632
000040 ca 20 0b be 55 e3 09 bd f1 30 66 3e bf fa 1c bd
       -0.13586727 -0.033664066 0.22479607 -0.038325068
000050 dd 83 57 3e 2c 4f 7d bd 78 ee a2 be 9f 58 f6 3d
       0.21046396 -0.061843082 -0.31822562 0.12028622
000060 15 03 ed bd 86 40 00 3e b5 f2 2d 3d db 22 32 be
       -0.115728535 0.12524614 0.04246779 -0.17396109
000070 1e ac 83 bd 30 79 db 3c 9c 2c 39 be 07 fd dd 3e
       -0.06429313 0.026791185 -0.18083423 0.43357107
000080 ba e1 f3 bc 37 98 43 3d 52 e4 3d 3d a4 41 f7 3d
       -0.02977072 0.047752585 0.04636032 0.12073067
000090 bf 62 9d 3b db 50 5c be ea 1e 9d 3e 55 6b bb bd
       0.004803031 -0.21515219 0.30687648 -0.09151331
0000a0 8e c9 31 3e ae d8 7c bd 11 0f 72 bd 8b 15 8f bd
       0.17362043 -0.06173008 -0.0590964 -0.06986531
0000b0 46 cc 54 3e e1 96 22 bc b9 e8 25 be ac fa 9e 3e
       0.20781049 -0.009923668 -0.16202058 0.31050622
0000c0 81 b6 12 3c 23 70 fc bc bf df 9c bd e3 15 b1 bd
       0.008954645 -0.03081519 -0.07659864 -0.08646753
0000d0 a4 58 4b 3e fe 46 00 3d a5 5e 20 bd 30 d7 5f be
       0.19858032 0.031317703 -0.03915276 -0.21859431
0000e0 ee e3 de 3d e2 23 c0 bd eb 42 0a be 19 87 a5 3e
       0.10883318 -0.09381844 -0.1350209 0.32329634
0000f0 27 72 c8 bd 43 4a e4 3d 11 92 87 3e 10 c8 36 be
       -0.09787398 0.11146977 0.26478627 -0.17849755
000100 1c 18 8b 3d 34 a5 48 3e f5 49 4c 3e 24 9d 16 be
       0.06791708 0.1959427 0.19950087 -0.14708382
000110 dd 18 3a 3d 34 de 28 be 5a 44 58 3e 14 64 2f bd
       0.045433868 -0.16491014 0.21119824 -0.04282005
000120 c4 14 b4 bd 62 1e b3 bd bb 21 af 3e 92 91 68 3c
       -0.08793023 -0.087460294 0.34205422 0.014194863
000130 e9 8f 2e be ba f8 1e 3b df c9 30 bd 49 47 85 3d
       -0.17047085 0.002425714 -0.04316127 0.06507737
000140 33 a1 16 3e
       0.1470993

conv/b f4 [3]
000000 9b bf ed 3d 79 e1 52 3e 2d b7 97 bd
       0.116088115 0.20593823 -0.07407985
